model.pth (torch, 42734 bytes, 21 tensors)

layers.0.weight f4 [64, 3]
0	0x3e714814	0.23562652
1	0xbed0df8c	-0.40795553
2	0xbf0eb4c5	-0.5574458
3	0xbeb80acf	-0.35945746
4	0x3e1c1f58	0.15246332
5	0x3c3a18cf	0.011358454
6	0xbf194b80	-0.5988083
7	0x3dd7b2b9	0.105321355
8	0x3edeaa55	0.43489328
9	0xbdf55773	-0.1197957
10	0x3edfa095	0.43677202
11	0x3ec3fdf8	0.382797
12	0xbf2a17ff	-0.66442865
13	0x3e318004	0.1733399
14	0x3df72347	0.120672755
15	0x3e513161	0.20428993
16	0xbe5728b6	-0.21011624
17	0x3ed39a8f	0.41328856
18	0x3e31afd3	0.17352228
19	0xbe963d1f	-0.29343507
20	0xbee41ee2	-0.44554812
21	0xbdde1c35	-0.10845224
22	0xbed98e87	-0.42491552
23	0xbe9d9373	-0.30776557
24	0x3f11d687	0.5696797
25	0xbeaf6ae9	-0.34261253
26	0xbe9dafec	-0.3079828
27	0x3e825ae0	0.25459957
28	0xbde60166	-0.112307355
29	0x3ea81405	0.32827774
30	0xbe9d03e5	-0.30667034
31	0xbe8f2621	-0.27958778
32	0xbefc0298	-0.4922073
33	0x3ef2408c	0.4731487
34	0xbe2a20c0	-0.16614056
35	0x3e86927e	0.2628364
36	0x3e874e88	0.26427102
37	0xbed32863	-0.4124175
38	0xbeed752d	-0.4637846
39	0x3ed79760	0.42107677
40	0x3e3bd674	0.18343526
41	0x3f034afd	0.512863
42	0xbe159bf8	-0.14610279
43	0x3ee08f4d	0.4385933
44	0xbeebed72	-0.46079594
45	0x3e7d277b	0.24722092
46	0xbe8cfd86	-0.27537173
47	0x3e8349e0	0.256423
48	0xbf1c7c1a	-0.61126864
49	0x3e7e7062	0.24847558
50	0xbe53c29a	-0.20679703
51	0xbe95c25f	-0.29249856
52	0x3f051323	0.51982325
53	0xbe5b784e	-0.21432611
54	0xbec18fec	-0.37805116
55	0xbf140a40	-0.5782814
56	0xbf018122	-0.50587666
57	0x3d9ead7f	0.077479355
58	0x3e1a1006	0.15045175
59	0xbf090795	-0.53527194
60	0x3eedc1d6	0.46436948
61	0xbeec58ef	-0.461616
62	0x3ea044ae	0.31302398
63	0x3ef6a391	0.48171666
64	0x3ddcb826	0.10777311
65	0x3f04f2c5	0.51932937
66	0xbe9b94b2	-0.30386883
67	0xbf0d6222	-0.55227864
68	0xbf07f23b	-0.5310399
69	0xbd43e592	-0.047826357
70	0xbd79cd0d	-0.060986567
71	0x3d8d08e3	0.06886461
72	0x3ea2cf47	0.31798765
73	0x3e4392f7	0.19099031
74	0xbeb4f347	-0.35341856
75	0x3f094f1a	0.53636324
76	0x3e8f2fc5	0.27966133
77	0xbe84b9ae	-0.25922912
78	0xbeb3095c	-0.34968078
79	0x3f1c8a81	0.6114884
80	0x3e3b6c70	0.18303084
81	0xbda6fc09	-0.08153541
82	0x3ed61746	0.4181463
83	0xbde1ecb0	-0.11031473
84	0x3eb4085e	0.35162634
85	0x3f08c20f	0.5342111
86	0x3ec531e2	0.3851462
87	0xbf041667	-0.51596683
88	0x3dcc35e2	0.09971215
89	0x3de88954	0.11354318
90	0xbf177b39	-0.591724
91	0xbf18acc7	-0.5963864
92	0x3e5f645e	0.21815631
93	0x3eb1547b	0.34634766
94	0xbe96bb5b	-0.29439816
95	0x3eca61f4	0.39527857
96	0xbe42e055	-0.19030888
97	0x3ef33832	0.4750381
98	0x3ef45474	0.47720683
99	0xbe422a0e	-0.18961355
100	0xbf1d7abe	-0.61515415
101	0x3e2d8c84	0.16948134
102	0xbe888232	-0.2666183
103	0x3e450a30	0.19242167
104	0x3e7a4ffa	0.24444571
105	0xbef535fd	-0.47892752
106	0xbe197a2f	-0.14988016
107	0x3e39265c	0.18081039
108	0x3ed8d8d9	0.42352942
109	0xbcb43893	-0.021999633
110	0xbed83892	-0.4223066
111	0x3e7e6c10	0.2484591
112	0x3e20eac8	0.15714562
113	0xbf23d417	-0.639955
114	0xbdbcd375	-0.0922002
115	0x3ea721a3	0.3264285
116	0xbeb79e5e	-0.35863012
117	0xbe0a1006	-0.13482675
118	0x3ea85e6a	0.32884532
119	0x3b6a0365	0.003570759
120	0xbdc3a900	-0.095537186
121	0xbe3dd6ac	-0.18538922
122	0xbde24147	-0.11047607
123	0x3e716d7b	0.2357692
124	0x3eab33b8	0.33437896
125	0x3ecb6797	0.3972747
126	0x3f0a4bb9	0.54021794
127	0xbee6114c	-0.4493507
128	0x3d990d64	0.07473257
129	0xbcd7cf9f	-0.026344119
130	0x3ee6650b	0.44998965
131	0xbf2997df	-0.6624736
132	0xbec978cc	-0.39349973
133	0x3efccb3f	0.49373814
134	0x3cfde8b3	0.030994749
135	0xbda1391e	-0.07872222
136	0xbe27b272	-0.16376665
137	0x3efc8d0e	0.49326366
138	0x3ed45d72	0.41477543
139	0xbea3944a	-0.31949073
140	0x3edf3683	0.43596277
141	0xbe4e62de	-0.20154902
142	0x3c027d7f	0.007964491
143	0x3e5d2722	0.21596959
144	0xbecf15d2	-0.40446335
145	0x3ecbf570	0.3983569
146	0x3ec106ac	0.37700403
147	0xbec4e90e	-0.38459057
148	0x3edcaec3	0.43102083
149	0x3dc41b0d	0.09575472
150	0xbe40e6af	-0.18837999
151	0xbdb1176a	-0.08647044
152	0xbf0a03f2	-0.5391227
153	0xbe47c680	-0.19509315
154	0xbd909e25	-0.07061414
155	0xbeff6757	-0.4988353
156	0xbf176ca9	-0.5915018
157	0x3e129458	0.14314401
158	0x3e9911d0	0.29896402
159	0xbe1bf7e3	-0.1523128
160	0x3e55c026	0.2087408
161	0x3e6c8315	0.23096879
162	0x3ec9129a	0.39272004
163	0xbee29e0a	-0.442612
164	0xbefc03c3	-0.4922162
165	0xbf11f6c9	-0.5701719
166	0xbe3e5752	-0.18587998
167	0x3e0f3315	0.1398433
168	0x3f023396	0.50859964
169	0x3e458d0e	0.1929209
170	0x3dc82733	0.09773102
171	0xbe6a8746	-0.22903165
172	0xbd97441a	-0.07386036
173	0xbc109e09	-0.008826741
174	0x3da606bb	0.081067525
175	0x3f0df78f	0.5545587
176	0xbf1c5701	-0.6107026
177	0xbf15c2f6	-0.5850061
178	0xbf0fd9f6	-0.56191957
179	0xbd12d4af	-0.035847362
180	0xbe86d373	-0.26333198
181	0xbd5c5df6	-0.053800546
182	0xbeba207c	-0.3635291
183	0xbf12d0e1	-0.57349974
184	0x3e8a43e3	0.27004918
185	0x3e5fd854	0.21859866
186	0x3ec7d36b	0.39028487
187	0xbe0c240b	-0.13685624
188	0xbead6dfa	-0.33872968
189	0x3e0a9e86	0.13537034
190	0x3eb23e3f	0.34813115
191	0x3c8db8bc	0.017300002

layers.0.bias f4 [64]
0	0xbecb8a37	-0.39753887
1	0x3ea9ae76	0.33140916
2	0xbdeaa07c	-0.11456391
3	0x3d4996d6	0.049216114
4	0xbf189d3b	-0.59614915
5	0xbe6a514c	-0.22882575
6	0xbdc1c08f	-0.09460556
7	0xbd8bb3b5	-0.06821386
8	0xbedfaed6	-0.43688077
9	0xbe92ff78	-0.28710532
10	0x3e78458b	0.24245279
11	0xbed4e3f9	-0.4158018
12	0xbef49fcd	-0.47778168
13	0xbdca0dce	-0.09865914
14	0xbea70cf5	-0.32627073
15	0xbf1e8ea6	-0.61936414
16	0x3e86fb54	0.26363623
17	0xbeb9d7b5	-0.36297384
18	0x3e263c77	0.16234003
19	0xbe1e05d0	-0.15431905
20	0xbf0eca57	-0.55777496
21	0xbe59ac57	-0.21257149
22	0xbdf8837b	-0.12134453
23	0x3e559b7f	0.20860098
24	0xbc4eda56	-0.0126252975
25	0xbdbf194f	-0.09330999
26	0x3d21ac0b	0.039470714
27	0x3d2cfa17	0.04223069
28	0xbe80a797	-0.2512786
29	0xbe9470ad	-0.28992215
30	0xbc487c42	-0.012236657
31	0xbef27be8	-0.47360158
32	0x3d60708d	0.054794837
33	0xbd881b9a	-0.066458896
34	0xbc95bbf5	-0.018278101
35	0xbe49095b	-0.19632475
36	0x3e3b5e21	0.18297626
37	0xbefd99f6	-0.49531525
38	0xbe5a552b	-0.21321552
39	0x3da226f2	0.079175845
40	0x3e664b0a	0.22489563
41	0x3e71c8e4	0.2361179
42	0xbe913645	-0.28361717
43	0x3e0483a8	0.12940848
44	0x3e90200b	0.28149447
45	0x3eb7314a	0.35779792
46	0xbf0a9678	-0.5413585
47	0x3eb7a388	0.35866952
48	0xbd69311d	-0.056931604
49	0xbee09e01	-0.43870547
50	0x3e04bc9b	0.12962572
51	0x3e773384	0.24140745
52	0xbf3db407	-0.74102825
53	0x3de3f8c9	0.111314364
54	0x3f028d2c	0.5099666
55	0xbe153df4	-0.14574414
56	0xbebb1259	-0.36537436
57	0x3ea9dc72	0.33176
58	0xbda929f0	-0.08259952
59	0xbee14898	-0.44000697
60	0xbf140826	-0.57824934
61	0xbf47c78f	-0.7803888
62	0xbdd5ab43	-0.10433056
63	0x3e708c5f	0.23491047

layers.1.weight f4 [32, 64]
0	0x3db11161	0.08645893
1	0xbbf95383	-0.0076088323
2	0x3d09ffa7	0.033691075
3	0xbe86cdea	-0.26328975
4	0x3e1755cd	0.14778824
5	0xbdb5cdb2	-0.08877124
6	0x3de9c30b	0.114141546
7	0x3deb596a	0.11491664
8	0x3e127e52	0.14306
9	0xbe66b168	-0.22528613
10	0x3c5a91a2	0.013340386
11	0x3ce6e6d9	0.028186249
12	0x3df8b26c	0.12143406
13	0xbe340213	-0.17578916
14	0xbd737a05	-0.05944254
15	0xbe07ed14	-0.13274032
16	0xbbeb1167	-0.0071737054
17	0xbe38f25e	-0.18061206
18	0xbb21d651	-0.0024694393
19	0x3dedc80d	0.11610422
20	0x3a59fafc	0.00083152927
21	0xbe8bcc44	-0.2730428
22	0x3d272607	0.04080775
23	0x3ca0083c	0.019535176
24	0x3cd79c00	0.026319504
25	0xbc6fa404	-0.014626507
26	0xbd862c75	-0.06551448
27	0xbdfcb28b	-0.12338742
28	0xbcff4f86	-0.03116585
29	0x3ca8299a	0.02052765
30	0x3d1d2652	0.038366623
31	0xbdfc11bc	-0.1230807
32	0xbe2728ec	-0.16324204
33	0x3d5de421	0.05417264
34	0xbd969ea4	-0.07354477
35	0x3e0c2611	0.13686396
36	0x3cf3a45e	0.029741462
37	0xbd413d11	-0.047177378
38	0xbd83d9bf	-0.06438016
39	0xbe5d1689	-0.21590628
40	0x3d1b444e	0.037906937
41	0xbe4502fe	-0.19239423
42	0xbd4b69ad	-0.049661327
43	0xbcd7feae	-0.026366558
44	0xbd9e1dfe	-0.07720564
45	0xbc64e075	-0.01396953
46	0xbd66b258	-0.056322426
47	0xbd4e3494	-0.05034311
48	0xbe08c510	-0.13356423
49	0xbcfd7163	-0.030937856
50	0x3c86acd0	0.016439825
51	0xbb31c44e	-0.0027125063
52	0xbe280d95	-0.16411431
53	0xbde069ed	-0.10957704
54	0x3c15428c	0.009110104
55	0x3e0faa8a	0.14029899
56	0xbe576cd3	-0.21037607
57	0xbb8b1a25	-0.00424506
58	0x3b88cc60	0.004174754
59	0x3e1ea23f	0.1549158
60	0x3ec1504a	0.37756568
61	0xbcc8168a	-0.02442481
62	0x3d9aeadc	0.07564327
63	0xbd55f61a	-0.052236654
64	0xbd9dce52	-0.07705368
65	0x3c44dfcd	0.012016249
66	0x3c8684fd	0.016420836
67	0xbdb858a0	-0.09001279
68	0xbe774656	-0.24147925
69	0xbd703062	-0.05863989
70	0xbd4a5734	-0.04939957
71	0xbe344029	-0.176026
72	0x3d22fe1e	0.039793126
73	0x3dfe7014	0.12423721
74	0xbc351ebe	-0.011054693
75	0x3e031f07	0.12804805
76	0xbe310508	-0.17287076
77	0xbe07667c	-0.13222688
78	0xbd17519a	-0.036943056
79	0xbd45483e	-0.0481646
80	0x3d4f385d	0.05059086
81	0x3d35d5ad	0.04439323
82	0xbd8a3298	-0.06747931
83	0x3ca2e1a5	0.019882986
84	0xbdb454c9	-0.08805234
85	0xbda71688	-0.08158594
86	0xbdd9a282	-0.10626699
87	0x3d8a87ef	0.067642085
88	0xbc8376b5	-0.016047815
89	0xbde7084a	-0.11280878
90	0xbd87586c	-0.06608662
91	0x3d8b95ab	0.06815656
92	0xbdc11dcf	-0.09429514
93	0xbe0e83f4	-0.13917524
94	0xbc968e33	-0.018378353
95	0x3d28b5e2	0.041189082
96	0x39b01c2c	0.00033590326
97	0x3d6d7f9d	0.05798303
98	0xbe39e453	-0.18153505
99	0xbda697f4	-0.081344515
100	0xbd68d75d	-0.05684601
101	0x3dfb6980	0.12275982
102	0x3bb662dd	0.0055659846
103	0xbd71f740	-0.059073687
104	0x3d531fe9	0.051544104
105	0xbc4a2886	-0.012338763
106	0xbdd687cb	-0.10475119
107	0x3cfb1ae2	0.030652467
108	0x3d5c4384	0.053775325
109	0x3d10c62a	0.035345234
110	0x3d9b04ca	0.07569273
111	0x3cf3d994	0.029766835
112	0xbd815745	-0.063154735
113	0xbe19bf1d	-0.1501431
114	0x3d3fca03	0.046823513
115	0xbe0df693	-0.13863592
116	0xbe348919	-0.17630424
117	0xbd5c18ae	-0.053734474
118	0xbb8342fa	-0.004005787
119	0x3ca309fc	0.019902222
120	0xbc5aba10	-0.013350025
121	0x3d9a0f2d	0.07522426
122	0x3dd2cc6a	0.10292895
123	0xbe082181	-0.1329403
124	0xbcd828a2	-0.026386563
125	0xbdc709c8	-0.097186625
126	0x3d342bb1	0.04398698
127	0xbd823056	-0.063568756
128	0x3cd69e67	0.026198579
129	0x3d09fb93	0.033687185
130	0x3d822735	0.063551344
131	0x3d9334b0	0.07187784
132	0x3e764aa6	0.24051914
133	0xbd714a77	-0.058908906
134	0x3c9ccbf7	0.019140227
135	0xbcf38c7c	-0.029730074
136	0x3ddad59e	0.106852755
137	0xbe8034b3	-0.25040206
138	0xbda4f377	-0.0805425
139	0xbd9d8fd8	-0.07693452
140	0x3dec6f0a	0.115446165
141	0xbd86bf43	-0.06579449
142	0xbe6e6f10	-0.23284554
143	0x3e6442f6	0.22291169
144	0xbc260dbe	-0.010135112
145	0x3d018c5d	0.031628
146	0xbb7836c3	-0.0037874437
147	0xbe936c2a	-0.2879346
148	0x3dfa0767	0.12208443
149	0xbe24ac89	-0.16081442
150	0xbda04e0e	-0.07827388
151	0x3d7fd596	0.06245955
152	0xbdb97ad2	-0.09056629
153	0x3dcf9240	0.10135317
154	0x3d13f5b2	0.036122985
155	0x3d55dc20	0.05221188
156	0x3d29ab26	0.041422985
157	0x3dd40d38	0.10354084
158	0x3bdc51e6	0.0067236302
159	0x3ccf0951	0.025272997
160	0x3cbfc8d8	0.0234112
161	0xbe475735	-0.1946686
162	0xbd0f903d	-0.035049666
163	0x3e46dd4d	0.19420357
164	0x3dc8707e	0.09787081
165	0x3e1e6d3b	0.15471356
166	0xbe60b9cc	-0.21945876
167	0x3d00ebfa	0.031475045
168	0xbda859a3	-0.08220222
169	0xb9073dc7	-0.00012897617
170	0xbd49d0a2	-0.049271233
171	0xbd8625dd	-0.065501906
172	0x3c0a2467	0.008431531
173	0x3ce57d2b	0.028013786
174	0xbe58ce9e	-0.21172568
175	0xbd6a3178	-0.057176083
176	0x3c900b50	0.01758352
177	0x3d3f639f	0.046725865
178	0xbe30e7e5	-0.1727596
179	0x3b9c0b18	0.0047620647
180	0x3e444566	0.19167098
181	0x3d9bdf1b	0.07610913
182	0xbd2b288f	-0.041786727
183	0x3d7036df	0.05864608
184	0xbd288d9c	-0.041150674
185	0xbd23f529	-0.040028725
186	0xbe009d7b	-0.12560074
187	0xbc7d9941	-0.015478433
188	0x3c51fc8d	0.01281656
189	0x3e5ece98	0.21758497
190	0x3d5a9eb5	0.05337401
191	0xbd1345c7	-0.035955217
192	0xbe8cafd5	-0.274779
193	0xbd4b5cad	-0.04964893
194	0xbe2e6f4e	-0.17034647
195	0xbe237b89	-0.15965094
196	0x3d82724c	0.06369457
197	0x3d91b459	0.07114477
198	0xbda46d7f	-0.08028697
199	0xbd8f142b	-0.069862686
200	0xbdc262be	-0.0949149
201	0x3dfacf81	0.122466095
202	0x3c9ad6b3	0.018901205
203	0xbda126ea	-0.078687504
204	0xbe34bac0	-0.17649364
205	0xbcfb6295	-0.030686656
206	0xbce582b7	-0.028016431
207	0x3ce76d55	0.028250376
208	0x3db46d26	0.08809881
209	0xbbbe55a3	-0.0058085485
210	0x3ab46f2e	0.0013766044
211	0x3ccdc329	0.025117474
212	0x3cd98e24	0.026557036
213	0xbcf93cae	-0.030424442
214	0xbd4ca3fb	-0.04996107
215	0xbd071f25	-0.032988686
216	0x3dc6332e	0.096777305
217	0x3d920a11	0.07130826
218	0xbc846efc	-0.016166203
219	0x3a2dac28	0.00066250795
220	0xbdefbbed	-0.11705766
221	0x3d912fbc	0.07089183
222	0x3baaaa07	0.005208257
223	0x3e736aed	0.23771258
224	0xbdd574f4	-0.10422698
225	0xbb696389	-0.0035612306
226	0xbdb6cbae	-0.089255676
227	0x3d59f844	0.05321528
228	0x3d140b7f	0.036143776
229	0x3ccfbea1	0.025359454
230	0x3aecf026	0.0018076941
231	0xbc852255	-0.016251722
232	0xbd8912f0	-0.06693065
233	0xbbd6d007	-0.0065555605
234	0xbc3bd93d	-0.011465368
235	0xbd40bd32	-0.04705543
236	0x3d52d27f	0.051470276
237	0x3dda8fe0	0.10671973
238	0x3e49d339	0.19709481
239	0xbdb73e19	-0.08947391
240	0xbce40c58	-0.027837917
241	0x3cc692b1	0.02423987
242	0xbbdaee23	-0.00668122
243	0x3cb6d4aa	0.022318203
244	0x3d916bed	0.07100663
245	0x3cf2bc2b	0.029630741
246	0x3d27168e	0.040792994
247	0xbe25bddd	-0.16185708
248	0xbc1fb206	-0.009747034
249	0xbd235c64	-0.039883032
250	0x3d578a75	0.052622277
251	0xbda4f2ae	-0.080541
252	0xbd7243e5	-0.05914678
253	0x3e219323	0.15778784
254	0x3d726fea	0.05918876
255	0xbd719121	-0.058976296

layers.1.bias f4 [32]
0	0x3e024f67	0.12725602
1	0x3e00f554	0.12593585
2	0xbe4b7ae3	-0.19871096
3	0xbd24e0ea	-0.040253557
4	0x3d209f92	0.039214678
5	0x3ddca632	0.10773887
6	0x3d08358b	0.033254188
7	0x3e06487f	0.13113593
8	0x3cb81b6d	0.022474015
9	0x3d583429	0.05278412
10	0xbd3396b1	-0.043844882
11	0xbc1cb678	-0.009564988
12	0x3c5d0472	0.013489829
13	0x3d5f9f99	0.054595564
14	0xbd79ee95	-0.061018545
15	0xbdc4d0d2	-0.09610142
16	0xbe02e648	-0.12783158
17	0x3d08bbf5	0.033382375
18	0xbe584b26	-0.21122417
19	0x3cf58ff6	0.029975872
20	0x3c13001a	0.008972192
21	0xbe018acb	-0.12650602
22	0xbcf6de13	-0.03013519
23	0x3e201ad7	0.15635239
24	0xbe183c10	-0.14866662
25	0x3d34f7d8	0.044181675
26	0x3c9f1dab	0.019423326
27	0x3d4e3d64	0.050351515
28	0x3d9fb99d	0.07799075
29	0xbd88f1bd	-0.06686733
30	0xbdb10de1	-0.08645225
31	0xbdb058b3	-0.08610668

layers.2.weight f4 [16, 32]
0	0x3ccff8e7	0.02538724
1	0x3be726c3	0.0070541813
2	0xbe519578	-0.20467174
3	0xbda90a61	-0.08253933
4	0xbe0c2be1	-0.13688613
5	0xbc7043dc	-0.014664616
6	0xbc5808fa	-0.013185734
7	0xbce52956	-0.027973812
8	0xbc197230	-0.009365603
9	0xbe0f425d	-0.1399016
10	0x3acae606	0.0015479929
11	0xbd940317	-0.07227152
12	0x3d2fef73	0.042952966
13	0xbdf4bc65	-0.11949996
14	0x3dc28ed8	0.094999015
15	0xbcb65652	-0.022257958
16	0x3e48d285	0.19611557
17	0xbdba9c53	-0.09111848
18	0x3b7bb9e8	0.003841037
19	0x3dc336c8	0.09531933
20	0x3d07ae70	0.03312534
21	0xbd5aa7bd	-0.053382624
22	0xbdad814d	-0.08471928
23	0xbe22883e	-0.15872285
24	0xbe4e3cee	-0.2014043
25	0xbce88e6a	-0.02838822
26	0xbcb1529a	-0.021645833
27	0x3da7d7d4	0.08195463
28	0x3da51d45	0.08062223
29	0xbe3d15b2	-0.18465307
30	0xbc7b7cf5	-0.015349616
31	0xbd7f32e5	-0.062304396
32	0xbe5b3473	-0.21406727
33	0x3e0018bb	0.12509434
34	0x3d0d188c	0.034447238
35	0x3d6c4576	0.05768343
36	0xbddec5b1	-0.108775504
37	0x3d497556	0.049184166
38	0xbe12752f	-0.14302514
39	0x3ded1cd6	0.11577766
40	0x3e04112e	0.12897179
41	0xbe24d7cc	-0.16097945
42	0x3bb2f8ce	0.0054617887
43	0x3e2ba777	0.16763102
44	0xbd801f5c	-0.06255981
45	0x3d704ec0	0.05866885
46	0xbe587a95	-0.21140511
47	0xbe0755f5	-0.13216384
48	0xbde1fa59	-0.11034078
49	0x3d7e1fef	0.062042173
50	0xbdebc65c	-0.115124434
51	0xbddb7728	-0.107160866
52	0xbc70a62b	-0.014688055
53	0x3dfd5756	0.12370174
54	0xbd6b2d50	-0.05741626
55	0x3e268dae	0.16264984
56	0xbe11e4c9	-0.14247431
57	0xbd62ee44	-0.05540301
58	0x3e526fd0	0.20550466
59	0xbe2f44ca	-0.17116085
60	0x3de32ffe	0.11093138
61	0xbe131575	-0.14363654
62	0x3d610d8f	0.05494457
63	0xbc95a6c9	-0.018268006
64	0xbea366a3	-0.31914243
65	0x3de7a401	0.11310578
66	0x3e489370	0.19587493
67	0x3d99c7f1	0.07508839
68	0xbe01cad3	-0.12675028
69	0xbb12cfd7	-0.0022401714
70	0xbe1ecb71	-0.15507294
71	0x3e0de126	0.13855419
72	0x3e045ae4	0.12925297
73	0xbe5e8b72	-0.21732882
74	0x3d75cbbe	0.060008757
75	0xbd3e703c	-0.046493754
76	0x3e44e20e	0.19226858
77	0x3db96afa	0.09053607
78	0xbe71738c	-0.23579234
79	0xbe2fc7af	-0.17166017
80	0xbdae2a24	-0.085041314
81	0x3d202249	0.039095197
82	0xbe417d64	-0.18895489
83	0xbdbfb428	-0.09360534
84	0xbd5c8555	-0.053838093
85	0xbdb3cab8	-0.087789
86	0xbdeae746	-0.11469893
87	0x3e20ec23	0.15715079
88	0xbe848cd7	-0.25888702
89	0x3aeccda4	0.0018066657
90	0x3df61cea	0.12017234
91	0xbdd47b73	-0.103751086
92	0x3e2589d1	0.16165854
93	0xbe3ccb98	-0.1843704
94	0xbcfa4404	-0.03055001
95	0x3c809563	0.015696233
96	0xbcb15dd6	-0.02165119
97	0xbdfc97ab	-0.12333616
98	0xbdfd6980	-0.12373638
99	0x3d29ab1e	0.041422956
100	0x3d09bca9	0.033627186
101	0xbe3d2834	-0.18472368
102	0x3e9e9703	0.30974588
103	0xbe151ecb	-0.14562528
104	0xbe4309de	-0.19046733
105	0x3e58e60d	0.21181507
106	0x3dc3debb	0.09563967
107	0xbdec4078	-0.11535734
108	0xbdd3859d	-0.10328219
109	0x3d5ca851	0.053871457
110	0x3e064ca0	0.13115168
111	0x3e0caf5f	0.13738774
112	0xbc8b2125	-0.016983578
113	0xbd895ef7	-0.06707566
114	0xbdea52f7	-0.114416055
115	0xbc7a5b0d	-0.015280497
116	0x3e7fc972	0.24979189
117	0xbdbff56e	-0.09372984
118	0x3e476f75	0.19476111
119	0xbe136c60	-0.1439681
120	0x3d371871	0.044701044
121	0xbe24c77e	-0.16091725
122	0xbe1fa835	-0.1559151
123	0x3d2e7547	0.042592313
124	0xbdcaab4c	-0.098959535
125	0x3d83ffbf	0.06445264
126	0xbe1518f2	-0.14560297
127	0x3df36f4b	0.11886462
128	0x3bf33935	0.007422591
129	0xbdc59733	-0.096479796
130	0xbe3fb79f	-0.1872239
131	0xbc1745ef	-0.009232982
132	0x3d585e45	0.052824277
133	0xbe62385d	-0.22091813
134	0x3e82cfc4	0.25549138
135	0xbe15739f	-0.14594887
136	0xbe34758b	-0.17622964
137	0x3e55caf8	0.20878208
138	0x3e18edf1	0.14934517
139	0xbdbbac0d	-0.091636755
140	0xbe59c2a6	-0.21265659
141	0x3cc534e1	0.024073066
142	0x3ccbb756	0.024867695
143	0x3dcd5a21	0.10026956
144	0xbbd4831e	-0.006485357
145	0xbe3ae75e	-0.18252322
146	0xbe019e7a	-0.1265811
147	0xbd2f877d	-0.04285382
148	0x3c2b094c	0.010439228
149	0xbda2ec8e	-0.079552755
150	0x3c93f992	0.01806334
151	0xbd078bc3	-0.03309227
152	0xbd3e5a7a	-0.046473004
153	0xbe366044	-0.1781016
154	0xbe34dfee	-0.17663547
155	0x3e128cda	0.14311543
156	0xbe20db23	-0.15708594
157	0x3e019318	0.12653768
158	0xbe113813	-0.14181547
159	0x3dce4c4b	0.100731455
160	0x3dd14d02	0.10219766
161	0xbda2d0f4	-0.07950011
162	0xbdc9812a	-0.09839089
163	0x3d8d2f9a	0.06893845
164	0x3df32cbc	0.11873767
165	0xbe0e322f	-0.13886331
166	0x3e9ad745	0.30242363
167	0xbe394408	-0.18092358
168	0xbdc439ba	-0.09581323
169	0x3e371ffe	0.17883298
170	0x3e148dc3	0.14507203
171	0xbd179da3	-0.03701557
172	0xbe0f2644	-0.13979441
173	0x3d3c59fc	0.045984253
174	0x3d903df6	0.07043068
175	0x3d60dd64	0.054898635
176	0xbd97bdc5	-0.074092425
177	0xbe899c80	-0.26877213
178	0xbe088a62	-0.13334039
179	0x3e03fc03	0.12889104
180	0x3c7929c0	0.015207708
181	0xbe1d0cd1	-0.1533692
182	0x3de6a2bc	0.11261508
183	0xbe5d1110	-0.2158854
184	0x3ca46c4c	0.020071171
185	0xbc7fe06d	-0.015617472
186	0xbe449639	-0.1919793
187	0x3d0502b9	0.0324733
188	0xbe44ff29	-0.19237961
189	0x3dc26a2c	0.09492907
190	0xbe193b1a	-0.14963952
191	0xbcfce155	-0.030869165
192	0x3c4af11d	0.012386587
193	0xbdae6c19	-0.08516712
194	0x3df529c6	0.11970858
195	0x3e28c700	0.16482162
196	0xbcc76838	-0.024341688
197	0x3ea417eb	0.32049498
198	0xbda9234b	-0.08258685
199	0x3e7983ba	0.24366656
200	0x3d6b8a25	0.05750479
201	0xbe0b463f	-0.13601016
202	0x3cd38397	0.025819583
203	0x3e0e0a50	0.13871121
204	0x3dddd459	0.10831518
205	0x3ddc0ec9	0.107450075
206	0xbd328871	-0.043587152
207	0x3e04cea9	0.1296946
208	0xbe4c86c7	-0.19973288
209	0xbe219c84	-0.15782362
210	0x3e02bb82	0.12766841
211	0xbd4c739a	-0.049914934
212	0xbc3817ac	-0.011236113
213	0x3dac3f62	0.08410527
214	0xbd09764f	-0.033560093
215	0x3d1a817a	0.037721135
216	0xbc734dde	-0.014850108
217	0x3d964bd9	0.073386855
218	0xbd9c4b66	-0.076315686
219	0xbc84cfeb	-0.016212424
220	0xbda32288	-0.07965571
221	0x3d04e83d	0.032448042
222	0x3d4810fc	0.048844323
223	0xbcaed7e7	-0.021343185
224	0x3d5e1174	0.054215863
225	0x3d261186	0.040544055
226	0xbe38a783	-0.1803265
227	0x3a6aff58	0.0008964441
228	0x3dfbcdeb	0.12295135
229	0xbe810db4	-0.25205767
230	0x3e9e757b	0.30949005
231	0xbe0dd81b	-0.13851969
232	0xbdbc7d02	-0.09203531
233	0x3e37694e	0.17911264
234	0xbd279893	-0.04091699
235	0xbdffc5d5	-0.12488905
236	0xbe14140a	-0.1446077
237	0xbcd957c8	-0.026531115
238	0x3d67255c	0.056432113
239	0x3e3d3e83	0.18480878
240	0xbe12b944	-0.14328486
241	0xbd66e0ff	-0.056366917
242	0xbdffb7b7	-0.12486213
243	0xbd8d33c8	-0.06894642
244	0x3e09a544	0.1344195
245	0x3c33ebfe	0.010981558
246	0x3d90cc48	0.070702136
247	0xbe24869a	-0.16066971
248	0x3e11ca8f	0.14237426
249	0x3c4ca0e9	0.012489536
250	0xbe1fe726	-0.1561552
251	0x3e164a0f	0.14676689
252	0xbe2f93b2	-0.17146185
253	0x3db5c4e6	0.08875446
254	0xbe4618aa	-0.19345346
255	0x3dd21edb	0.102597915

layers.2.bias f4 [16]
0	0xbe5096ca	-0.20370021
1	0x3de06eea	0.10958655
2	0x3e0e8d56	0.13921103
3	0x3daf39ae	0.085559234
4	0x3e13c2bf	0.14429758
5	0x3e1bb3d1	0.15205313
6	0xbd82e6bf	-0.063916676
7	0x3e108680	0.14113808
8	0x3dc91dd1	0.0982014
9	0x3d9ffc1d	0.07811759
10	0x3dec188a	0.11528118
11	0x3cca5640	0.02469933
12	0x3d5d2cf0	0.053997934
13	0x3ddce794	0.107863575
14	0xbe1953f7	-0.14973436
15	0xbcc8dbba	-0.024518836

output_layer.weight f4 [1, 16]
0	0xbd12e01f	-0.03585827
1	0x3e9e2f68	0.30895543
2	0x3e838194	0.25684798
3	0xbe1f15cc	-0.15535659
4	0xbe392f43	-0.18084435
5	0xbdffe934	-0.12495652
6	0x3e48d43e	0.19612214
7	0xbdcdd472	-0.10050286
8	0x3e8022be	0.25026506
9	0x3e45d20e	0.19318411
10	0xbe7e249e	-0.24818656
11	0x3e14f28f	0.14545654
12	0xbe016219	-0.12635078
13	0xbe9fee15	-0.3123633
14	0x3e726c09	0.23674025
15	0x3e408c78	0.18803585

exp_avg f4 [64, 3]
0	0x39f30e52	0.0004635924
1	0xb8053294	-3.1756776e-05
2	0x3884bb53	6.329142e-05
3	0xb9ba5c6e	-0.0003554555
4	0xb978feeb	-0.00023746087
5	0x38b50191	8.631044e-05
6	0x393af273	0.00017828662
7	0xb88884dd	-6.509733e-05
8	0xb8efbaba	-0.000114311886
9	0xb8913e22	-6.925712e-05
10	0xb98e3c42	-0.00027129246
11	0x3999927a	0.00029291568
12	0xb9dee8bb	-0.00042516537
13	0x396981f8	0.00022269029
14	0x3984e326	0.0002534624
15	0xb94d9616	-0.00019606235
16	0x3806ed62	3.216917e-05
17	0xb92fcb77	-0.00016765097
18	0x3a00c88d	0.0004912697
19	0xb91500c9	-0.0001421004
20	0x398af9e2	0.00026507588
21	0xb9d98b2d	-0.0004149316
22	0xba3af612	-0.0007132004
23	0x3a630287	0.00086597394
24	0x37d9bc71	2.5956166e-05
25	0xb9a4921a	-0.00031389372
26	0xb971fda5	-0.00023078041
27	0xba55c100	-0.00081540644
28	0x3a83371a	0.0010010928
29	0x396a7ff0	0.0002236364
30	0x391984a9	0.00014640637
31	0x3620486f	2.388402e-06
32	0xba0cbb7d	-0.0005368514
33	0x3901edc8	0.00012390979
34	0x3a0ac179	0.0005293112
35	0x39ff03b5	0.00048640152
36	0x3896d4fc	7.192229e-05
37	0x3869bd0f	5.5727603e-05
38	0x39cc0c94	0.00038919284
39	0xb96f2a02	-0.00022808465
40	0xb8e317cc	-0.00010828636
41	0xb9777718	-0.00023600121
42	0xb9bfcc45	-0.00036582552
43	0xb88d6bf0	-6.743509e-05
44	0x393b09a7	0.00017837305
45	0xb75dcfca	-1.3221006e-05
46	0x3a03715a	0.0005014144
47	0xb9a1bd21	-0.00030849225
48	0x391fbe1c	0.00015234243
49	0x39b37f42	0.00034236355
50	0x3802b647	3.1164174e-05
51	0xb99135f1	-0.00027696745
52	0xb8d8e942	-0.0001034313
53	0xb951633d	-0.00019968762
54	0xb78e40b1	-1.6957843e-05
55	0x3950fcfa	0.00019930667
56	0xb9b8431c	-0.00035145215
57	0xb8dbfb7f	-0.000104895786
58	0x37e4add2	2.726066e-05
59	0x389ac0a4	7.379174e-05
60	0x38037c6b	3.1348707e-05
61	0x39c1e781	0.00036984312
62	0xb952efdd	-0.00020116517
63	0xb8c2768f	-9.272724e-05
64	0x3990720e	0.00027550798
65	0xba1c077c	-0.0005952043
66	0x38b5f4ba	8.6763364e-05
67	0x3924ef91	0.00015729504
68	0xb90a1116	-0.0001316707
69	0xb99ddb0e	-0.00030108582
70	0xb89df5b2	-7.532108e-05
71	0x3929854a	0.0001616675
72	0x39b3ee32	0.0003431901
73	0x3982dc97	0.00024959884
74	0x39329f7f	0.0001703482
75	0x39a28eb6	0.00031005376
76	0x39bb9809	0.00035780694
77	0x3929a655	0.0001617906
78	0xb986f541	-0.000257412
79	0xb8e498e7	-0.000109003675
80	0xb9991b19	-0.00029202623
81	0x399902f3	0.0002918463
82	0x37d30491	2.5155286e-05
83	0x3765489b	1.3666368e-05
84	0x3820c79e	3.833288e-05
85	0xb9994212	-0.0002923166
86	0xb9be1bf8	-0.00036260462
87	0xb7ec4dcc	-2.816962e-05
88	0xb873ac47	-5.809616e-05
89	0x390b2f95	0.00013273799
90	0xb99b3876	-0.0002960597
91	0x389e9799	7.562264e-05
92	0x347f6945	2.3787022e-07
93	0xb8b16ba5	-8.460068e-05
94	0x3a5382f6	0.0008068526
95	0xb98c87eb	-0.00026804148
96	0x382d4633	4.1311792e-05
97	0xb89b3642	-7.401082e-05
98	0xb7b1bb8f	-2.1187383e-05
99	0xb9aa9d93	-0.0003254233
100	0x38af0c97	8.346995e-05
101	0xb8f5b52a	-0.00011716255
102	0x38006a64	3.0616662e-05
103	0xb9fbe3cb	-0.0004804417
104	0x3999ea5d	0.00029357048
105	0xb98dbead	-0.0002703568
106	0x3976a537	0.00023521936
107	0x399d6f7c	0.00030028436
108	0x393c1e85	0.00017940447
109	0x3985d854	0.00025528914
110	0xb9574898	-0.00020531041
111	0xb755f149	-1.2751968e-05
112	0xb83298df	-4.258088e-05
113	0xb9b8d13f	-0.00035251115
114	0x3912ed42	0.0001401203
115	0xba1d4f62	-0.00060009037
116	0xb5c1efbe	-1.4449395e-06
117	0xb916e36b	-0.00014389835
118	0xb9a4df7e	-0.00031447032
119	0x391e47ea	0.00015094844
120	0x39ac6848	0.00032884092
121	0xb991a99f	-0.00027782933
122	0x38e10838	0.00010730367
123	0xb902b9a1	-0.00012466918
124	0x3576cb2e	9.1937807e-07
125	0x37ea91c9	2.796286e-05
126	0x3a0e2084	0.00054217153
127	0x3a129b60	0.00055926107
128	0x393f1a20	0.00018224912
129	0x39a1e6c0	0.00030880235
130	0xb98608f1	-0.00025565134
131	0xb9361fdb	-0.0001736874
132	0x38ec00c1	0.00011253497
133	0x38f0dc5b	0.00011485136
134	0xb8fd46c8	-0.00012077164
135	0xb974fb17	-0.00023363192
136	0x393c3c7c	0.0001795161
137	0x3903a6a9	0.0001255522
138	0xb9dc64d0	-0.0004203678
139	0x39fca9a4	0.00048191578
140	0xb826dc2a	-3.9782528e-05
141	0xb8a469e6	-7.8398545e-05
142	0x38ad7981	8.271915e-05
143	0x38bb70ab	8.937841e-05
144	0xb95017a8	-0.00019845238
145	0xba30f75d	-0.0006750727
146	0x39573368	0.00020523148
147	0x389476d8	7.079326e-05
148	0x390d945d	0.00013502077
149	0xb91a24bf	-0.00014700273
150	0xb78ed9ab	-1.7029079e-05
151	0xb90e5e8e	-0.000135774
152	0x38984918	7.2615396e-05
153	0xb989aa5e	-0.0002625761
154	0x372cdb4c	1.0303058e-05
155	0xb8b08491	-8.4170264e-05
156	0x3a344f30	0.0006878255
157	0x390d6f66	0.00013488307
158	0xba4fd8f6	-0.0007928753
159	0x39811ce9	0.00024626337
160	0x39267557	0.00015874706
161	0xb90aeefb	-0.00013249733
162	0x39b3187c	0.00034159783
163	0x395dae5f	0.0002114116
164	0x3996344c	0.00028649194
165	0x39c48009	0.00037479427
166	0x394c6caa	0.00019495437
167	0xb9482fcd	-0.00019091294
168	0xba12d3f9	-0.00056010444
169	0xb89c8921	-7.464202e-05
170	0x3a1ea025	0.0006051085
171	0x3922e574	0.00015535002
172	0xb805b182	-3.1874988e-05
173	0x398dab6a	0.0002702133
174	0xb84ea5f5	-4.9268787e-05
175	0x39696f3c	0.0002226205
176	0x39ae631f	0.00033261717
177	0xb98466ed	-0.00025253688
178	0xb8301a0a	-4.198592e-05
179	0xb9cb6401	-0.00038793686
180	0x3a866df2	0.0010256155
181	0x38a224ef	7.7316414e-05
182	0x387fa694	6.0951876e-05
183	0x3a0785a0	0.0005169753
184	0xb800c3bd	-3.0699874e-05
185	0x39172d1a	0.00014417284
186	0x394dd25c	0.00019628688
187	0xb92c1cd0	-0.00016413932
188	0xb9738b85	-0.00023226261
189	0xb83f3b42	-4.5593137e-05
190	0xb8907151	-6.887562e-05
191	0xb9090902	-0.00013068694

exp_avg_sq f4 [64, 3]
0	0x3596c3c8	1.1232851e-06
1	0x356b3b28	8.7630406e-07
2	0x351cad3b	5.836661e-07
3	0x3485ffe1	2.4959357e-07
4	0x34d0467b	3.87943e-07
5	0x34fe3db6	4.7356087e-07
6	0x34b89d10	3.438695e-07
7	0x34e8d6cd	4.3369656e-07
8	0x350800ae	5.0664937e-07
9	0x351423ff	5.518668e-07
10	0x3504c617	4.946209e-07
11	0x3509a1b4	5.1271786e-07
12	0x35a299b5	1.2114675e-06
13	0x359d5355	1.1721664e-06
14	0x35b0b002	1.3164247e-06
15	0x3534c6a5	6.734429e-07
16	0x351e52f0	5.8980277e-07
17	0x353612c0	6.782757e-07
18	0x34aeef39	3.2584083e-07
19	0x349d88e3	2.9343127e-07
20	0x344df9f9	1.9183052e-07
21	0x354772a6	7.430011e-07
22	0x3557ab58	8.034308e-07
23	0x353f1ba0	7.1193244e-07
24	0x3427318a	1.5571109e-07
25	0x34208804	1.4950643e-07
26	0x33e4573a	1.0632944e-07
27	0x35a37e31	1.2181173e-06
28	0x35a96dc1	1.2623424e-06
29	0x35c071aa	1.4338195e-06
30	0x34e083d2	4.1819163e-07
31	0x353e5a5b	7.0912e-07
32	0x34b8420e	3.4320732e-07
33	0x35b085d3	1.315197e-06
34	0x35520dd7	7.8251236e-07
35	0x355f9d27	8.330266e-07
36	0x354bab4c	7.587266e-07
37	0x353e3a36	7.0865224e-07
38	0x34f7e11e	4.617113e-07
39	0x3475e1cb	2.2899546e-07
40	0x34d069e4	3.8820065e-07
41	0x349a63a8	2.8757245e-07
42	0x3530f04e	6.59148e-07
43	0x352039a0	5.96885e-07
44	0x344ffb1d	1.9369732e-07
45	0x34c43b72	3.6551097e-07
46	0x351554e2	5.5630346e-07
47	0x34c20910	3.614191e-07
48	0x33f2c5dd	1.1304994e-07
49	0x34660948	2.1423796e-07
50	0x347a35be	2.3302616e-07
51	0x341f05d0	1.4810144e-07
52	0x340f40cf	1.334149e-07
53	0x341a68b9	1.4380466e-07
54	0x34882e45	2.536564e-07
55	0x34a17338	3.007242e-07
56	0x348bbac8	2.602667e-07
57	0x34980633	2.8316717e-07
58	0x34972120	2.8150043e-07
59	0x3471fbb8	2.2536449e-07
60	0x3542ec6f	7.261469e-07
61	0x3507dd56	5.0613505e-07
62	0x353e16c7	7.081366e-07
63	0x34b663b0	3.3972674e-07
64	0x3501d716	4.8369236e-07
65	0x351661ea	5.602184e-07
66	0x351d44ca	5.858716e-07
67	0x3583031e	9.761168e-07
68	0x34fc7f47	4.7031264e-07
69	0x34ad87c6	3.232255e-07
70	0x34abfb4d	3.2034077e-07
71	0x34a16d37	3.006805e-07
72	0x34d7573d	4.0110345e-07
73	0x351f88d0	5.9431204e-07
74	0x34a656e9	3.0983145e-07
75	0x34be5b0b	3.54565e-07
76	0x34b69c04	3.4013658e-07
77	0x34771697	2.3011886e-07
78	0x34dcc281	4.1119714e-07
79	0x348038b9	2.388313e-07
80	0x351e47f9	5.896432e-07
81	0x3522b749	6.061642e-07
82	0x3495dd7d	2.7914567e-07
83	0x34b8ceab	3.4423041e-07
84	0x34a3bad8	3.0497063e-07
85	0x34e66125	4.291152e-07
86	0x34fc1c97	4.695946e-07
87	0x3508feb6	5.10346e-07
88	0x350a112f	5.143401e-07
89	0x35244606	6.119666e-07
90	0x3476a285	2.296966e-07
91	0x349c0a5b	2.90648e-07
92	0x3538ce06	6.8845145e-07
93	0x35c76d4d	1.4858466e-06
94	0x35911acd	1.0811142e-06
95	0x35a46d2e	1.2250728e-06
96	0x34d4e3d5	3.9653847e-07
97	0x34b366e9	3.3416225e-07
98	0x34db3210	4.0828354e-07
99	0x34890043	2.551843e-07
100	0x3417e5e1	1.41466e-07
101	0x34cefb2d	3.8553245e-07
102	0x34ddfee2	4.134991e-07
103	0x353d3da3	7.049768e-07
104	0x355af2a4	8.1564417e-07
105	0x35575449	8.021639e-07
106	0x35761948	9.167893e-07
107	0x35adfd31	1.2963193e-06
108	0x3492e71d	2.7362776e-07
109	0x349db66d	2.937626e-07
110	0x341f9e14	1.4865537e-07
111	0x3480beae	2.3980596e-07
112	0x343b1714	1.7424128e-07
113	0x3446d1aa	1.8516462e-07
114	0x352409ec	6.11092e-07
115	0x355c3b1a	8.204239e-07
116	0x34aa8d19	3.176763e-07
117	0x3522b60d	6.061462e-07
118	0x34912800	2.7037458e-07
119	0x352181d4	6.01661e-07
120	0x347830fa	2.3114617e-07
121	0x348c9af3	2.6189772e-07
122	0x349433d3	2.7604855e-07
123	0x347ecedb	2.3730847e-07
124	0x34a60ba3	3.0928376e-07
125	0x34872400	2.5171903e-07
126	0x349e3d91	2.947459e-07
127	0x348e2313	2.647508e-07
128	0x34bd6c98	3.5283006e-07
129	0x3541de15	7.2221275e-07
130	0x34b2f76d	3.333511e-07
131	0x344c0a20	1.9002664e-07
132	0x34827ff6	2.430749e-07
133	0x341d86f6	1.4670863e-07
134	0x34be590e	3.5455054e-07
135	0x34354cc8	1.6884871e-07
136	0x341da26f	1.4680857e-07
137	0x34083b97	1.2687666e-07
138	0x35ddd9b5	1.6529144e-06
139	0x35c32e08	1.4542029e-06
140	0x35d0f3d6	1.5568173e-06
141	0x341ce779	1.4612841e-07
142	0x3443ab38	1.8223079e-07
143	0x3433230d	1.6683425e-07
144	0x34f14b4c	4.4944534e-07
145	0x34e1e606	4.207688e-07
146	0x350f6a4b	5.342633e-07
147	0x34b4de32	3.368928e-07
148	0x3514e3bc	5.5465694e-07
149	0x34ba057a	3.4649184e-07
150	0x35372820	6.82312e-07
151	0x351dc691	5.877601e-07
152	0x3453a85e	1.9712158e-07
153	0x34f47798	4.5535558e-07
154	0x3509b08a	5.1293375e-07
155	0x345b8538	2.0444429e-07
156	0x35f8aada	1.8527164e-06
157	0x35b0fbcd	1.3186306e-06
158	0x35f3ddad	1.8169427e-06
159	0x34ecd38e	4.4112352e-07
160	0x34cb7aa2	3.7900924e-07
161	0x35031248	4.8827906e-07
162	0x34b83d99	3.431749e-07
163	0x34f399f3	4.537429e-07
164	0x34baef0e	3.4819135e-07
165	0x3511f5cc	5.437439e-07
166	0x3542e454	7.2602893e-07
167	0x35a94ea6	1.2614371e-06
168	0x34fc5ed1	4.7007646e-07
169	0x34705fc0	2.2386575e-07
170	0x3485e6bb	2.494106e-07
171	0x3487ac76	2.527119e-07
172	0x34b28e49	3.325861e-07
173	0x34bafc1d	3.4828636e-07
174	0x34aef51f	3.2588375e-07
175	0x34b7706b	3.41682e-07
176	0x3450959c	1.9425937e-07
177	0x3465af0f	2.1390973e-07
178	0x34983cc6	2.8356425e-07
179	0x3491e408	2.717427e-07
180	0x34d8704c	4.0314842e-07
181	0x346c55e5	2.2010461e-07
182	0x355a26f8	8.1268036e-07
183	0x36069865	2.0056261e-06
184	0x35eafae9	1.7507383e-06
185	0x360ab6b4	2.066995e-06
186	0x349b0bb3	2.8879512e-07
187	0x3495bbae	2.7889968e-07
188	0x348997d6	2.5628714e-07
189	0x34b47999	3.3616087e-07
190	0x34446cb8	1.8293474e-07
191	0x34aa7064	3.1746742e-07

exp_avg f4 [64]
0	0x3946c5a7	0.00018956383
1	0x3884ea85	6.337933e-05
2	0xb9d73a01	-0.00041051212
3	0xb9cef112	-0.00039470993
4	0x3a078cb0	0.00051708054
5	0xb8d2e3ac	-0.000100559875
6	0x392b292f	0.00016323173
7	0x396caf26	0.00022571962
8	0x39717d8a	0.00023030318
9	0xb9f31e5b	-0.00046371188
10	0xb9207cbd	-0.00015305258
11	0x3985ec12	0.00025543623
12	0x37ec50ae	2.8170962e-05
13	0xb9c8ed01	-0.00038323554
14	0xb946c692	-0.00018956725
15	0xb97ed77a	-0.00024303599
16	0xb988001c	-0.00025940023
17	0x38cc2da8	9.735982e-05
18	0xb7ebb8fd	-2.8100325e-05
19	0xb7bccb7b	-2.25061e-05
20	0xb99936d9	-0.000292233
21	0xba1023e0	-0.000549851
22	0xb887a962	-6.468852e-05
23	0x367c8d29	3.7633092e-06
24	0x3a032836	0.00050032453
25	0x3a12090a	0.0005570805
26	0xb957a5ab	-0.00020565714
27	0x39640f76	0.00021749534
28	0xba0dc124	-0.00054075033
29	0x39b21805	0.00033968702
30	0x39ef3ccb	0.00045630927
31	0xb9b55279	-0.00034584457
32	0xb93c7291	-0.00017971756
33	0x393a8233	0.00017786845
34	0x39839acb	0.00025101597
35	0x39ab8c89	0.00032720368
36	0x397f2e26	0.00024335887
37	0x39ccf740	0.00039094128
38	0xb911638d	-0.00013865363
39	0xb9ee7d78	-0.0004548838
40	0x39431fce	0.00018608497
41	0xb816b123	-3.592776e-05
42	0x39975747	0.0002886599
43	0x39d1edff	0.00040040907
44	0xb8ca4275	-9.644489e-05
45	0x3926aaf9	0.00015894686
46	0xb9cdb3f1	-0.00039234714
47	0xb6b7d521	-5.4786365e-06
48	0xb98001fa	-0.00024415535
49	0x3975fda2	0.00023459506
50	0xba003d40	-0.00048919395
51	0x39146a21	0.00014153916
52	0xb9f65cde	-0.00046989968
53	0xb822e0d6	-3.8833205e-05
54	0x393472c3	0.0001720889
55	0xb8b60797	-8.67985e-05
56	0xb91ab98a	-0.00014755703
57	0x3985de0d	0.00025533178
58	0xb859d3a9	-5.1933956e-05
59	0x39ac32e3	0.0003284431
60	0xb89e4468	-7.546769e-05
61	0xb944e214	-0.00018776237
62	0x39647072	0.00021785664
63	0xb8b06d8d	-8.4127394e-05

exp_avg_sq f4 [64]
0	0x3541ec91	7.224235e-07
1	0x350dc151	5.2807906e-07
2	0x34ded1eb	4.1503458e-07
3	0x3544eed3	7.3363225e-07
4	0x357bfbbc	9.387111e-07
5	0x352b15c8	6.373416e-07
6	0x34b18bf0	3.3070637e-07
7	0x356b041e	8.7550313e-07
8	0x33f41a06	1.1366869e-07
9	0x3590ef49	1.0798477e-06
10	0x35271063	6.2236194e-07
11	0x35727859	9.0327154e-07
12	0x34eb51fa	4.3831807e-07
13	0x34c58eb1	3.679793e-07
14	0x34b06954	3.285919e-07
15	0x349d83fb	2.9339557e-07
16	0x347b4449	2.3401039e-07
17	0x340d568d	1.3163135e-07
18	0x34b2110f	3.3167495e-07
19	0x3489da32	2.5676997e-07
20	0x3510fd03	5.401236e-07
21	0x34e48369	4.2563923e-07
22	0x352f28e3	6.525208e-07
23	0x34c073e1	3.58471e-07
24	0x3505a4a4	4.9785945e-07
25	0x34bc9df7	3.5132663e-07
26	0x3501c217	4.833868e-07
27	0x34f83f16	4.62395e-07
28	0x34c370db	3.6403694e-07
29	0x34e870de	4.329549e-07
30	0x35034cb4	4.891292e-07
31	0x358d5fd9	1.0533214e-06
32	0x35054505	4.96468e-07
33	0x3497a6ed	2.8247396e-07
34	0x354fff32	7.748487e-07
35	0x35687b70	8.660636e-07
36	0x348cf66c	2.6256328e-07
37	0x342a450a	1.58576e-07
38	0x3502caef	4.872408e-07
39	0x352c6284	6.421835e-07
40	0x34ad56c8	3.2286903e-07
41	0x34cccf81	3.814894e-07
42	0x34b09ef9	3.2898222e-07
43	0x34fda603	4.7245712e-07
44	0x34d47e4e	3.9579976e-07
45	0x3438e081	1.721801e-07
46	0x35aab21a	1.2717821e-06
47	0x347316a1	2.2639371e-07
48	0x353574e5	6.759786e-07
49	0x34aaf64d	3.1844175e-07
50	0x35133cfa	5.48505e-07
51	0x351d9b00	5.871261e-07
52	0x35a4ad1a	1.2269331e-06
53	0x35127a81	5.4567505e-07
54	0x350faf93	5.3527145e-07
55	0x35605420	8.356892e-07
56	0x349b09d1	2.8878142e-07
57	0x34c1b62b	3.6081596e-07
58	0x34942835	2.7596403e-07
59	0x348813bb	2.534633e-07
60	0x349dbaa7	2.9379336e-07
61	0x35b8594c	1.3735057e-06
62	0x348c3247	2.6113614e-07
63	0x34b21d16	3.3176246e-07

exp_avg f4 [32, 64]
0	0x38d56a75	0.00010176461
1	0x3a06fda9	0.00051494926
2	0xb9e766ce	-0.0004413635
3	0x39192f72	0.00014608892
4	0xb80abe28	-3.307886e-05
5	0x3948bdf0	0.00019144244
6	0x38d4383d	0.00010119423
7	0x3939f1f5	0.00017733111
8	0x39b9912e	0.00035394117
9	0x382b958a	4.0908846e-05
10	0xb9227a9e	-0.00015495202
11	0x38fb5760	0.000119848875
12	0x38dfe026	0.000106752195
13	0x38de0cda	0.00010588179
14	0x397bb7a1	0.00024005632
15	0x389b02e1	7.391512e-05
16	0xb9541363	-0.00020225118
17	0x390a5a3a	0.00013194318
18	0x39e5a678	0.00043802313
19	0x38f775fe	0.000117998556
20	0x39422175	0.00018513745
21	0x39256567	0.00015773402
22	0x384fedcc	4.957411e-05
23	0x38fabe8f	0.00011956423
24	0x390a3e9d	0.00013184031
25	0x377b5360	1.4980178e-05
26	0x380dd0b1	3.381138e-05
27	0x3835ef5c	4.3376684e-05
28	0x37aba7c7	2.0462916e-05
29	0xb9221f58	-0.000154612
30	0x39a0ac73	0.00030646063
31	0x383c73d5	4.493057e-05
32	0x39028ae7	0.00012449511
33	0x39355993	0.00017294874
34	0x37dbf52d	2.6221003e-05
35	0xb659e6a7	-3.2469777e-06
36	0x3a09ad15	0.00052519265
37	0x389510b5	7.1079856e-05
38	0x392cd05f	0.00016480823
39	0x38b134a5	8.4498235e-05
40	0xb5b0a105	-1.3159885e-06
41	0x38cc9943	9.756025e-05
42	0x395c2f8c	0.00020998548
43	0xb9875f3d	-0.00025820165
44	0x37d0a00d	2.4870062e-05
45	0x3a161435	0.0005725057
46	0x38724b65	5.7767513e-05
47	0x3997c94c	0.00028950942
48	0xb73e6f93	-1.135086e-05
49	0x3758d7d9	1.2924859e-05
50	0xb90ffda5	-0.00013732033
51	0xb9993feb	-0.00029230057
52	0x3793e4ce	1.7630311e-05
53	0x3730e17c	1.0542917e-05
54	0x3a209348	0.0006125462
55	0x3873e52b	5.8149144e-05
56	0x393555b1	0.00017293428
57	0x3a0f15e0	0.0005458277
58	0x39d35b9c	0.0004031331
59	0x388c7ed0	6.699341e-05
60	0xb8bd1973	-9.0169626e-05
61	0xb702ae9d	-7.789259e-06
62	0xb84e35a5	-4.9164188e-05
63	0x398adfd9	0.0002648819
64	0x390c417f	0.0001337584
65	0xba2007aa	-0.00061046577
66	0x39a2fede	0.0003108894
67	0xb948df80	-0.00019156747
68	0xb7c358de	-2.3287193e-05
69	0xb756df85	-1.2807436e-05
70	0x388d1eaa	6.7291156e-05
71	0x393acfcd	0.00017815754
72	0xb8abb918	-8.188392e-05
73	0x3924dad6	0.00015721782
74	0xb8ac522a	-8.2169034e-05
75	0x38107ccf	3.4448512e-05
76	0x38960c93	7.1548995e-05
77	0x38f1bc56	0.00011526856
78	0xb8bda067	-9.0420996e-05
79	0x37f6d8c4	2.9426425e-05
80	0xb9f6003f	-0.0004692096
81	0xb8ec12e1	-0.000112568734
82	0xb9a9fbf0	-0.000324219
83	0xb9d9afe9	-0.0004152053
84	0xb826477e	-3.9644066e-05
85	0xb92671b8	-0.00015873357
86	0xb8bc5ec3	-8.982189e-05
87	0xb7cc2067	-2.4333784e-05
88	0xb92acc54	-0.00016288582
89	0x37be33bd	2.2673858e-05
90	0xb923030f	-0.00015546031
91	0x38114a3b	3.4639826e-05
92	0x3939956a	0.00017698636
93	0x38b975a0	8.843397e-05
94	0x3a2568f8	0.0006309892
95	0x38c1fb64	9.249782e-05
96	0xb9a7daf1	-0.00032015846
97	0x39212fc7	0.00015371955
98	0x38299261	4.0429066e-05
99	0xb7707eaf	-1.4334611e-05
100	0xb98cb47c	-0.00026837352
101	0x380689fd	3.20766e-05
102	0xb93fb86f	-0.00018283886
103	0x35d736ce	1.6034699e-06
104	0xb85489d4	-5.06731e-05
105	0xb902caf0	-0.00012473366
106	0x38a2b01f	7.757567e-05
107	0x38cb4bc7	9.693909e-05
108	0xba21f566	-0.000617823
109	0xb9fdc930	-0.00048405817
110	0x3849ab1b	4.808149e-05
111	0xb9536d2b	-0.00020163196
112	0x39b7a75d	0.00035029175
113	0x38365213	4.346862e-05
114	0x39cee081	0.0003945865
115	0xba0cf010	-0.0005376348
116	0xb81b64c6	-3.7048732e-05
117	0xb928c7dd	-0.00016096183
118	0x38f6d4a8	0.000117698044
119	0xb9313432	-0.0001689948
120	0xb845b434	-4.7136287e-05
121	0xb9446d23	-0.00018732673
122	0xba24476d	-0.0006266747
123	0x3854e848	5.0761068e-05
124	0x38087846	3.253694e-05
125	0xb792e78f	-1.7512384e-05
126	0x383afa4f	4.4578974e-05
127	0xb9c72c49	-0.00037989233
128	0xb9239d61	-0.0001560352
129	0xb9f9d856	-0.00047654164
130	0xbb0b3efe	-0.0021247263
131	0xba508de5	-0.0007955714
132	0x37e07930	2.6759313e-05
133	0xb8caaba1	-9.664079e-05
134	0xb8253381	-3.9387032e-05
135	0x38a6ad92	7.947827e-05
136	0xb8bff702	-9.1535985e-05
137	0xb6df6cd0	-6.6585853e-06
138	0xb86848bf	-5.538086e-05
139	0xb80f78e8	-3.420646e-05
140	0xb9083d01	-0.00012992696
141	0xb92a7620	-0.00016256468
142	0xb8c67073	-9.462321e-05
143	0xb79046c8	-1.7199098e-05
144	0xba4bbc77	-0.0007771919
145	0xba39473e	-0.0007067806
146	0xb98cbc6f	-0.00026843275
147	0x36350d8f	2.6978994e-06
148	0xb6979ddb	-4.5185275e-06
149	0x38251908	3.9362378e-05
150	0xb91ed1da	-0.0001514623
151	0xb8dd33ef	-0.000105477746
152	0xb6355562	-2.70208e-06
153	0x3930283a	0.00016799654
154	0xba8a7c0e	-0.0010565536
155	0xb9702c85	-0.00022904768
156	0xb949bd34	-0.00019239337
157	0xb927e17e	-0.00016010363
158	0x398a7915	0.00026411624
159	0x37cd797a	2.4494471e-05
160	0xbac5a73e	-0.0015079749
161	0x38b62660	8.685584e-05
162	0xba69ff9b	-0.0008926333
163	0x395d5a43	0.00021109828
164	0xb9128d39	-0.00013976255
165	0xb401d476	-1.2091354e-07
166	0xb8795f7c	-5.9455153e-05
167	0xba268af6	-0.0006353104
168	0x38746da8	5.827626e-05
169	0xb87d4133	-6.0380622e-05
170	0x38adf31f	8.294568e-05
171	0xba2f21c9	-0.00066807546
172	0xba255c50	-0.0006308006
173	0xba8fb7aa	-0.001096477
174	0xb7181159	-9.063945e-06
175	0xb9681611	-0.00022133465
176	0xba445365	-0.00074892334
177	0xba0da0fd	-0.0005402712
178	0x37e2b4bd	2.7025462e-05
179	0xb9fa2ff7	-0.00047719452
180	0xb9ae4dfa	-0.00033245963
181	0xba0fcb5d	-0.00054853206
182	0x39ba3fe6	0.00035524293
183	0xba35299f	-0.0006910804
184	0xb88847a5	-6.49833e-05
185	0x397fbb1a	0.00024388396
186	0xba1a6e41	-0.0005891063
187	0xb82eded2	-4.169235e-05
188	0x37f42879	2.9105913e-05
189	0xb9639128	-0.00021702482
190	0xb860256d	-5.3440617e-05
191	0x38b965a4	8.8404195e-05
192	0xb7a1dcb0	-1.9295461e-05
193	0x38fba11f	0.00011998624
194	0xb82f0d46	-4.1735613e-05
195	0x39026da5	0.00012438612
196	0x3904bdcc	0.00012659206
197	0x38a6d43f	7.955031e-05
198	0xb873c424	-5.8118385e-05
199	0x3899a0e5	7.3255775e-05
200	0xb88390cd	-6.273538e-05
201	0x3870b00c	5.7384415e-05
202	0xb92eb9a3	-0.00016663088
203	0xb7785269	-1.48011395e-05
204	0x3880fcd0	6.1506056e-05
205	0x39558f2d	0.000203666
206	0x389f9753	7.609897e-05
207	0x3746007e	1.1801834e-05
208	0xb8bc7c08	-8.987641e-05
209	0x39012685	0.00012316748
210	0xb8e24369	-0.00010789076
211	0x3817d405	3.6198664e-05
212	0x387f0964	6.0805483e-05
213	0x38e76cb4	0.00011035186
214	0x388acdc5	6.61868e-05
215	0xb7433f62	-1.1637663e-05
216	0x39622673	0.00021567363
217	0x395797f2	0.00020560602
218	0x39c088d8	0.0003672305
219	0xb907d20c	-0.00012952852
220	0x39039ca9	0.00012551494
221	0x38de1181	0.00010589045
222	0xb8b9bddc	-8.8568515e-05
223	0xb943c082	-0.00018668364
224	0x376442ba	1.3605395e-05
225	0x388f83cd	6.843321e-05
226	0x389a3bf4	7.3544594e-05
227	0x3927e208	0.00016010564
228	0xb9065760	-0.00012811786
229	0xb9145294	-0.00014145143
230	0xb8f7e934	-0.00011821315
231	0x36dbffe6	6.556499e-06
232	0xb8337bfd	-4.27924e-05
233	0x394458ab	0.00018725048
234	0x3815f7f9	3.575531e-05
235	0xb9560d6b	-0.00020413629
236	0x39b3dd7b	0.00034306556
237	0xb4eb82fb	-4.3867462e-07
238	0x381f68a5	3.8006012e-05
239	0xb7ac82b8	-2.0564868e-05
240	0x38b77ba3	8.749149e-05
241	0x37d7e893	2.5738298e-05
242	0x396f1fe1	0.00022804692
243	0x38458a0a	4.709702e-05
244	0xb4ef5dde	-4.4585516e-07
245	0x387ff2e2	6.102294e-05
246	0xb9242c10	-0.00015656673
247	0x360c747e	2.0929433e-06
248	0xb79d8e6a	-1.8782175e-05
249	0xb8e5096b	-0.00010921325
250	0xb92df093	-0.00016588187
251	0x3856ad09	5.1182727e-05
252	0x37cd2f0b	2.445981e-05
253	0xb8921d3c	-6.967268e-05
254	0x38a26722	7.743972e-05
255	0x37e3db7e	2.7162718e-05
